serving/latent_model_input.npy (npy, 131200 bytes, 1 tensors)

array f4 [2, 4, 64, 64]
000000 4b c7 63 bf da d8 4f bf f3 3a 08 bf 74 e2 15 bf
       -0.8897597 -0.81190264 -0.5321495 -0.58548665
000010 26 f9 04 be 7d 54 67 be 0e d1 1b bf 5a a9 8f bf
       -0.12985668 -0.22590823 -0.6086587 -1.1223557
000020 42 83 0a bc 56 38 06 bf 7d 40 2a 3e 50 17 96 b9
       -0.008454146 -0.5242971 0.16626163 -0.000286276
000030 96 3e a9 bd 44 dd 08 3e 63 22 83 3e b0 ef 05 bf
       -0.082638904 0.13365656 0.25612172 -0.5231886
000040 d0 e5 38 bf 54 79 84 bf ef 17 79 be 7c 79 13 bf
       -0.72225666 -1.0349526 -0.24325536 -0.57607245
000050 02 6b e0 bd 56 bd 9b be 1e e2 99 3d 8d 2d 2e 3f
       -0.1095791 -0.3041789 0.075138316 0.68038255
000060 a5 b7 12 3e b5 4b fa be 12 73 14 bf 9a a8 3c bd
       0.14327867 -0.48885885 -0.57988083 -0.04605923
000070 13 af d9 3e 29 2a d0 3e 68 0e 77 3e 22 9d 0a bf
       0.42516384 0.40657166 0.2412659 -0.54146016
000080 86 e7 3b bf d0 73 d3 be 17 2b ea be 08 ff 12 3e
       -0.7340015 -0.41299295 -0.45736 0.14355099
000090 53 0c 81 3e 27 41 83 be d0 3a 6d bb a0 f7 05 bd
       0.25204715 -0.25635645 -0.0036198385 -0.032706857
0000a0 f7 21 fc be 23 7b d4 3e 1f 89 a1 be 29 fa 7d 3d
       -0.49244663 0.41500196 -0.31549928 0.06200615
0000b0 29 ac e2 3d f9 37 00 3f 99 f1 e0 be 64 7c ce be
       0.11067993 0.5008541 -0.43934324 -0.40329278
0000c0 1b c9 e8 be 99 9b 82 3e 03 96 da 3e 29 b8 ad be
       -0.4546593 0.25509337 0.42692575 -0.33929566
0000d0 30 fa 56 bd 08 8a ee be 6f 15 49 be 00 9e 04 b9
       -0.05248469 -0.46589684 -0.19637083 -0.0001264736
0000e0 17 93 f6 be 40 71 a9 be a8 c5 6a 3f 94 b8 11 40
       -0.48159096 -0.33094215 0.9170785 2.2768908
0000f0 60 f5 8f bf a3 1c 63 bf 9e 71 9d 3f b8 20 9c bf
       -1.1246758 -0.8871557 1.2300298 -1.2197485
000100 ce d2 cc be 6c 99 5e 3e b1 a6 a2 3e 84 ea c4 3e
       -0.4000458 0.21738213 0.317678 0.3846017
000110 39 75 18 bf be 8a c3 3e 08 bb 0a be d9 3d 52 3e
       -0.5955387 0.3819179 -0.1354791 0.20531406
000120 34 2e 17 bf 86 a8 df be d0 cf 0d bf 14 49 2b bf
       -0.59054875 -0.4368326 -0.5539522 -0.66908383
000130 f9 81 b2 be 71 5c 97 3e fa e8 12 3e ff 23 4a 3e
       -0.34864786 0.29562715 0.14346686 0.19740294
000140 6e 09 a5 bd 26 2f ba 3e 15 64 e1 bd c3 2a ea 3b
       -0.08058439 0.36364096 -0.11005417 0.007146211
000150 9a 6f 02 3e 0e 1e 23 bd f0 e5 1e 3d 45 f7 83 bd
       0.12737885 -0.039823584 0.038793504 -0.06443647
000160 79 53 b3 be 52 93 cd 3e 39 41 40 be 57 d7 78 3d
       -0.35024622 0.4015146 -0.1877488 0.06075224
000170 28 56 09 bf 66 cf 28 bf 53 1f 8d bd 3e 3e c6 3e
       -0.5364709 -0.65941465 -0.0689074 0.38719362
000180 af 11 9a 3e 8d 7a c7 be f2 bc 76 3d 4a bc d7 3d
       0.30091617 -0.38960686 0.060238786 0.1053396
000190 d3 a5 46 bf a6 68 24 bf fe 00 7b 3e 72 cc a6 bd
       -0.7759678 -0.6422218 0.24512097 -0.081444636
0001a0 8f 04 b9 bd fb 81 df be cd cf 90 3e e0 f0 cb 3d
       -0.090340726 -0.43653855 0.2828354 0.09958053
0001b0 d8 a6 52 be 89 6c 8f be 6f a5 d1 3e 80 c4 24 be
       -0.20571458 -0.28012493 0.40946528 -0.16090584
0001c0 69 6a a6 bc f7 c5 19 bf 18 30 16 3e fb 51 b3 bd
       -0.020314412 -0.60067695 0.14666784 -0.08755871
0001d0 ef 7d a1 3e c4 a3 b9 3d f3 d2 92 be 5c 50 86 bd
       0.31541392 0.09064439 -0.28676566 -0.06558296
0001e0 52 dc 23 be 20 0d ee 3c f6 fb 37 3f f1 ee fd 3d
       -0.16002014 0.029058993 0.71868837 0.1239909
0001f0 34 bd be 3e c2 1a 07 3e fe 49 5b 3f ba 0a 6c 3f
       0.37253726 0.13193801 0.8565978 0.9220387
000200 d6 62 2d bf ed 0d f9 be 7d e7 34 bf 6b 7a 12 be
       -0.67728937 -0.48643437 -0.70665723 -0.14304511
000210 97 71 8b be 3b 79 8f be 5a 09 c1 3e 04 ef 3e bf
       -0.272351 -0.2802218 0.37702447 -0.7458346
000220 28 ff 0b 3e 56 0f 65 3e 01 59 99 be 02 f8 2d bf
       0.13671553 0.22369131 -0.29950717 -0.67956555
000230 fb e5 93 be 2f e6 ba be 98 e8 d4 be 01 6e f9 bd
       -0.288864 -0.3650374 -0.41583705 -0.12179185
000240 db d6 d2 be c0 7a 30 bf 95 48 30 be b1 1f 57 3e
       -0.41179547 -0.689373 -0.17215188 0.21008183
000250 32 7f a4 be 68 c4 b4 be c8 76 a7 be 56 32 4a be
       -0.32128292 -0.35306096 -0.3270781 -0.19745764
000260 f9 26 07 bf 60 24 44 bf 87 93 1e bf 3d 4f 35 be
       -0.5279384 -0.76618004 -0.6194386 -0.17706008
000270 16 20 ba bd f0 67 ff 3c ee f5 9f be d2 7e 7b be
       -0.09088151 0.031177491 -0.31242317 -0.24560097
000280 c3 6e 42 3e d8 7e c2 be 6e 6d 84 3b ff 00 8b bc
       0.18987565 -0.379874 0.0040413653 -0.016968248
000290 68 87 a2 3e ef 35 85 3c 02 1d 66 3e 59 53 1e be
       0.31743932 0.01626107 0.22472003 -0.15461482
0002a0 5b b4 11 be 7a 37 83 3e 04 db 8b be 08 ff d6 bd
       -0.14228956 0.25628263 -0.27315533 -0.10497862
0002b0 03 33 97 bd 93 28 19 bf 85 47 8d be 2f fa fb bd
       -0.073827766 -0.59827536 -0.27593628 -0.12303578
0002c0 84 35 34 3e f5 54 ad 3e 7e 8c 6a be 74 63 83 bc
       0.1759854 0.3385388 -0.22905156 -0.016038634
0002d0 48 cd a4 bd 1c 56 cd bd 11 4f b7 3e 73 b7 c9 3e
       -0.08046967 -0.1002619 0.3580251 0.39397773
0002e0 54 87 02 3c 10 3d 8d be a2 cb 97 bc 60 31 d4 be
       0.007966835 -0.2758565 -0.018529717 -0.4144392
0002f0 c0 bb b6 3d 6a 3f 20 bf 07 3e 1c bf 9a 7a 00 bf
       0.08922529 -0.6259676 -0.61032146 -0.50187075
000300 1d f3 e9 be a3 23 1e 3e 66 7b 58 3d c8 fc f7 3d
       -0.45693293 0.15443282 0.052852057 0.12108761
000310 4a 87 d3 3d 22 55 a7 3d b1 5f dd be 79 42 00 3e
       0.10328539 0.08170535 -0.4323707 0.12525357
000320 57 a1 7d be 29 e0 77 bf c3 70 20 be 56 5c 05 3e
       -0.24768578 -0.96826416 -0.15668015 0.13023505
000330 10 17 a3 bd b1 66 3c bf 28 22 e3 be 0b b5 03 bf
       -0.07963383 -0.73594195 -0.44361997 -0.51448125
000340 4b b9 37 3e 24 69 48 3e b7 70 48 3e 2a 0b 27 be
       0.17941777 0.19571358 0.19574247 -0.16312853
000350 70 87 44 3b 49 1c aa 3e 2b 5e 3b be c8 72 24 bf
       0.0029987954 0.33224705 -0.18297641 -0.6423764
000360 cc 98 9f 3e b8 2e fa 3d b5 2c 12 3d de bc 97 3e
       0.31171262 0.12215942 0.035687167 0.29636282
000370 01 94 da bd 1e b1 16 3e 2d 3b d1 be 7a 44 8f 3d
       -0.10672761 0.14716002 -0.4086546 0.06995483
000380 f5 65 95 be 88 fd 99 3e cd 1a 4e bc a0 04 58 be
       -0.2917935 0.30076241 -0.012579632 -0.21095514
000390 75 45 03 bf 98 c1 a1 3e f5 35 c7 be 97 02 33 bf
       -0.5127786 0.31593013 -0.38908353 -0.69925827
0003a0 b7 8c d3 be ca bc 03 bf bd a8 0d be 56 21 c2 3d
       -0.41318294 -0.51459944 -0.138339 0.094790146
0003b0 b1 45 1e bf 84 c6 85 3d 71 7c 90 3e 08 7e 2f bf
       -0.6182509 0.065320045 0.2821994 -0.68551683
0003c0 e9 e7 38 bf a8 d1 4b bf cf 77 23 be ea f2 3a bf
       -0.72228867 -0.79616785 -0.15963672 -0.7302691
0003d0 41 f6 93 3e 8a a8 cb 3d b6 be ce 3e ab 28 4a 3e
       0.28898814 0.09944256 0.40379876 0.19742076
0003e0 58 5e 7b 3c 88 ce d2 3e 69 5a 2d 3f e5 bb 54 3e
       0.0153423175 0.41173196 0.6771608 0.20774801
0003f0 17 b6 f9 be 06 74 2c 3e c0 40 12 3f d2 77 d4 3e
       -0.48771736 0.16841134 0.5713005 0.41497666
